…
        "                    batch_size=batch_size,\n",
        "                    epochs=10,\n",
        "                    verbose=1,\n",
        "                    validation_split=0.1)"
      ],
      "execution_count": 28,
      "outputs": [
        {
          "output_type": "stream",
          "text": [
            "Model: \"sequential_6\"\n",
            "_________________________________________________________________\n",
            "Layer (type)                 Output Shape              Param #   \n",
            "=================================================================\n",
            "dense_24 (Dense)             (None, 512)               7680512   \n",
            "_________________________________________________________________\n",
            "activation_24 (Activation)   (None, 512)               0         \n",
            "_________________________________________________________________\n",
            "dropout_18 (Dropout)         (None, 512)               0         \n",
            "_________________________________________________________________\n",
            "dense_25 (Dense)             (None, 256)               131328    \n",
            "_________________________________________________________________\n",
            "activation_25 (Activation)   (None, 256)               0         \n",
            "_________________________________________________________________\n",
            "dropout_19 (Dropout)         (None, 256)               0         \n",
            "_________________________________________________________________\n",
            "dense_26 (Dense)             (None, 128)               32896     \n",
            "_________________________________________________________________\n",
            "activation_26 (Activation)   (None, 128)               0         \n",
            "_________________________________________________________________\n",
            "dropout_20 (Dropout)         (None, 128)               0         \n",
            "_________________________________________________________________\n",
            "dense_27 (Dense)             (None, 3)                 387       \n",
            "_________________________________________________________________\n",
            "activation_27 (Activation)   (None, 3)                 0         \n",
            "=================================================================\n",
            "Total params: 7,845,123\n",
            "Trainable params: 7,845,123\n",
            "Non-trainable params: 0\n",
            "_________________________________________________________________\n",
            "Epoch 1/10\n",
            "106/106 [==============================] - 10s 92ms/step - loss: 0.8133 - accuracy: 0.6354 - val_loss: 0.4050 - val_accuracy: 0.8379\n",
…
