…
        "        class_mode='categorical')"
      ],
      "execution_count": null,
      "outputs": [
        {
          "output_type": "stream",
          "text": [
            "Found 8005 images belonging to 2 classes.\n",
            "Found 2023 images belonging to 2 classes.\n",
            "Model: \"sequential_4\"\n",
            "_________________________________________________________________\n",
            "Layer (type)                 Output Shape              Param #   \n",
            "=================================================================\n",
            "conv2d_12 (Conv2D)           (None, 62, 62, 64)        1792      \n",
            "_________________________________________________________________\n",
            "activation_18 (Activation)   (None, 62, 62, 64)        0         \n",
            "_________________________________________________________________\n",
            "max_pooling2d_12 (MaxPooling (None, 31, 31, 64)        0         \n",
            "_________________________________________________________________\n",
            "dropout_15 (Dropout)         (None, 31, 31, 64)        0         \n",
            "_________________________________________________________________\n",
            "conv2d_13 (Conv2D)           (None, 29, 29, 32)        18464     \n",
            "_________________________________________________________________\n",
            "activation_19 (Activation)   (None, 29, 29, 32)        0         \n",
            "_________________________________________________________________\n",
            "max_pooling2d_13 (MaxPooling (None, 14, 14, 32)        0         \n",
            "_________________________________________________________________\n",
            "dropout_16 (Dropout)         (None, 14, 14, 32)        0         \n",
            "_________________________________________________________________\n",
            "conv2d_14 (Conv2D)           (None, 12, 12, 32)        9248      \n",
            "_________________________________________________________________\n",
            "activation_20 (Activation)   (None, 12, 12, 32)        0         \n",
            "_________________________________________________________________\n",
            "max_pooling2d_14 (MaxPooling (None, 6, 6, 32)          0         \n",
            "_________________________________________________________________\n",
            "dropout_17 (Dropout)         (None, 6, 6, 32)          0         \n",
            "_________________________________________________________________\n",
            "flatten_4 (Flatten)          (None, 1152)              0         \n",
            "_________________________________________________________________\n",
            "dense_11 (Dense)             (None, 256)               295168    \n",
            "_________________________________________________________________\n",
            "dense_12 (Dense)             (None, 128)               32896     \n",
            "_________________________________________________________________\n",
            "dense_13 (Dense)             (None, 64)                8256      \n",
            "_________________________________________________________________\n",
            "dense_14 (Dense)             (None, 32)                2080      \n",
            "_________________________________________________________________\n",
            "dense_15 (Dense)             (None, 2)                 66        \n",
            "=================================================================\n",
            "Total params: 367,970\n",
            "Trainable params: 367,970\n",
            "Non-trainable params: 0\n",
            "_________________________________________________________________\n",
            "None\n",
            "Found 8005 images belonging to 2 classes.\n"
          ],
          "name": "stdout"
…
